examples/workforce/terminal_bench/tasks/pytorch-model-cli/task-deps/model.pth (torch, 54714 bytes, 6 tensors)

input_layer.weight f4 [16, 784]
-0.050555035 -0.078930125 -0.05276203 -0.025155412 -0.061981674 -0.08153242 -0.07628369 -0.07634288
-0.068185225 -0.041531727 -0.086632416 -0.04730592 -0.052375164 -0.07241213 -0.06019838 -0.042230077
-0.045644276 -0.03668791 -0.021341475 -0.038754694 -0.024686271 -0.069074094 -0.07204439 -0.039199963
-0.06664395 -0.08166638 -0.066918835 -0.076107115 -0.075575575 -0.049586244 -0.064440385 -0.07887173
-0.077506006 -0.04247033 -0.07374597 -0.04005652 -0.022442942 -0.0645274 -0.013243796 -0.019437458
-0.031107085 -0.055868413 -0.05899377 -0.022510704 -0.0740593 -0.022845248 -0.07237618 -0.044615977
-0.02168756 -0.075372554 -0.056004744 -0.08783159 -0.068292394 -0.031160561 -0.047593385 -0.05407083
-0.0234487 -0.022067217 -0.03519426 -0.06945812 -0.06551158 -0.053055596 -0.08391053 -0.045394495
0.0043213544 -0.022816973 0.01713473 -0.020380082 0.053506047 0.04924094 -0.010376434 0.023124715
0.01265895 -0.0010895706 0.026191505 0.00022097783 -0.04377049 -0.033874605 -0.028832577 -0.068539634
-0.0652946 -0.03179378 -0.028670484 -0.06057068 -0.020866444 -0.053959697 -0.063936554 -0.040666662
-0.035788704 -0.040203054 -0.016099464 -0.004037056 0.006986439 0.022610515 -0.006803472 0.07039373
0.03912234 0.094909824 0.0645141 0.11044388 0.06468538 0.080312125 0.06808451 0.091567546
0.057687473 0.015629565 -0.023577858 -0.027214428 -0.037442837 -0.034586526 -0.07006832 -0.044699296
-0.05315335 -0.033141702 -0.085478716 -0.029067472 -0.092513196 -0.048341848 -0.039805695 -0.089333236
-0.06309471 -0.017765604 0.057690438 0.045488913 0.09529229 0.09141696 0.2162865 0.20120838
0.21441025 0.18019493 0.13051273 0.045120023 0.017293073 -0.00052591733 -0.0020302047 -0.06814764
-0.025499182 -0.0121888835 -0.016857617 -0.037549313 -0.035299785 -0.07985692 -0.08189944 -0.08978224
-0.088173576 -0.07001136 -0.098871015 -0.11543954 -0.043888703 -0.030333016 0.046274066 0.060140666
0.0839866 0.029142966 0.09021147 0.063027844 0.116908655 0.19646607 0.093696505 0.11493782
0.11321873 0.07432165 0.008679096 -0.01978333 0.011881897 -0.018950354 -0.017222697 -0.07687702
-0.06522685 -0.09139462 -0.03241347 -0.069858104 -0.087303594 -0.1297844 -0.15753096 -0.12151322
-0.051213462 -0.032453932 -0.06667065 -0.015984016 0.056069113 0.029817613 0.0004090772 0.037112843
-0.070906036 -0.035195436 -0.05787576 0.09931573 0.102099106 0.06386381 0.044309024 0.13099325
0.078724936 0.0024182412 -0.012444103 -0.032822926 -0.064376965 -0.03999324 -0.028856294 -0.07632585
-0.12606911 -0.115203485 -0.122363515 -0.064396 0.029993683 0.02980649 0.004356591 0.0135826925
-0.08066879 -0.13832332 -0.12858978 -0.105440006 -0.1496908 -0.15891246 -0.08625107 -0.0065613845
0.06679319 0.10418279 0.0943554 0.18603589 0.21286844 0.089703545 -0.04103819 -0.020060685
-0.058234066 -0.047403164 -0.084887914 -0.10731296 -0.14786501 -0.12211139 -0.06552448 0.015052476
0.062402222 0.053388078 0.006752482 -0.014880265 -0.015198761 -0.021153165 -0.17534065 -0.17492299
-0.1031436 -0.06897741 -0.0734122 0.04902782 0.008392605 0.030758835 0.0957474 0.27368465
0.33890298 0.12476767 -0.034959603 -0.072147496 -0.05288378 -0.07672429 -0.07386622 -0.108312875
00000000: cc12 4fbd 1ea6 a1bd 001d 58bd b912 cebc
00000010: 7fe0 7dbd 78fa a6bd a03a 9cbd a859 9cbd
00000020: b2a4 8bbd 2c1d 2abd 566c b1bd dac3 41bd
00000030: 5787 56bd d04c 94bd 9492 76bd 72f9 2cbd
00000040: 7ef5 3abd 1046 16bd 51d4 aebc 3ebd 1ebd
00000050: dd3a cabc b876 8dbd 028c 93bd 2490 20bd
00000060: a07c 88bd b440 a7bd be0c 89bd 0cde 9bbd
00000070: 5ec7 9abd f21a 4bbd 52f9 83bd 8087 a1bd
00000080: 78bb 9ebd 5ef5 2dbd 2108 97bd 4e12 24bd
00000090: 43da b7bc f126 84bd 82fc 58bc 4e3b 9fbc
000000a0: 49d4 febc 47d6 64bd 74a3 71bd 5e68 b8bc
000000b0: 67ac 97bd f525 bbbc f639 94bd 3ebf 36bd
000000c0: 1caa b1bc ed5c 9abd 3b65 65bd 0ce1 b3bd
000000d0: e2dc 8bbd 6f44 ffbc 48f1 42bd 6079 5dbd
000000e0: 7d17 c0bc 4fc6 b4bc db27 10bd 0f40 8ebd
000000f0: ef2a 86bd d350 59bd 49d9 abbd 94ef 39bd
00000100: 269a 8d3b a9ea babc 225e 8c3c 21f4 a6bc
00000110: 2829 5b3d deb0 493d eb01 2abc 0b70 bd3c
00000120: 7c67 4f3c eccf 8eba 918f d63c 49b6 6739
00000130: af48 33bd 19c0 0abd 4c32 ecbc 825e 8cbd
00000140: 2db9 85bd 323a 02bd 5dde eabc f618 78bd
00000150: 1bf0 aabc d804 5dbd 2bf1 82bd 1692 26bd
00000160: 2d97 12bd f5ab 24bd 06e3 83bc 4849 84bb
00000170: 80ee e43b b039 b93c a9ef debb 972a 903d
00000180: bf3e 203d 1560 c23d f81f 843d 6730 e23d
00000190: c579 843d af7a a43d e46f 8b3d c487 bb3d
000001a0: b349 6c3d 9309 803c 5a26 c1bc cbf0 debc
000001b0: a95d 19bd 9aaa 0dbd fb7f 8fbd 9c16 37bd
000001c0: 54b7 59bd 98bf 07bd 770f afbd e81e eebc
000001d0: 8f77 bdbd 1a02 46bd 4c0b 23bd 58f4 b6bd
000001e0: cd37 81bd 2c89 91bc cf4c 6c3d 9552 3a3d
000001f0: 9b28 c33d d138 bb3d 357a 5d3e 9209 4e3e
00000200: 5c8e 5b3e 0585 383e 21a5 053e c6cf 383d
00000210: 34aa 8d3c b7dd 09ba 2f0d 05bb fd90 8bbd
00000220: a9e3 d0bc e2b3 47bc fc18 8abc 4fcd 19bd
00000230: 8296 10bd 068c a3bd e5ba a7bd c0df b7bd
00000240: 5994 b4bd 1e62 8fbd e37c cabd 916b ecbd
00000250: a4c4 33bd f27c f8bc e089 3d3d 0f56 763d
00000260: 2b01 ac3d 3bbd ee3c cbc0 b83d be14 813d
00000270: ce6d ef3d 672e 493e f4e3 bf3d 8564 eb3d
00000280: 39df e73d f335 983d c432 0e3c a610 a2bc
00000290: 4aac 423c c63d 9bbc 9d16 8dbc b371 9dbd
000002a0: a895 85bd 1a2d bbbd fdc3 04bd c411 8fbd
000002b0: 3acc b2bd 34e6 04be cc4f 21be ecdb f8bd
000002c0: 35c5 51bd 6aee 04bd 9f8a 88bd e9f0 82bc
000002d0: baa8 653d 1144 f43c 6a79 d639 a303 183d
000002e0: 2f37 91bd 1729 10bd 220f 6dbd 0c66 cb3d
000002f0: 5619 d13d 07cb 823d 617d 353d 1823 063e
00000300: 8a3a a13d 5b7b 1e3b 5ae2 4bbc 5571 06bd
00000310: 12d8 83bd f4cf 23bd 0964 ecbc ba50 9cbd
00000320: 4318 01be ceef ebbd b999 fabd 0de2 83bd
00000330: 50b5 f53c bd2c f43c bcc1 8e3b f189 5e3c
00000340: ae35 a5bd a1a4 0dbe 0aad 03be eef0 d7bd
00000350: 8c48 19be f3b9 22be 67a4 b0bd e200 d7bb
00000360: deca 883d c95d d53d 673d c13d 3180 3e3e
00000370: 2ffa 593e 7eb6 b73d a917 28bd 4e56 a4bc
00000380: d886 6ebd d229 42bd b7d9 adbd e6c6 dbbd
00000390: ed69 17be 8915 fabd b331 86bd a99e 763c
000003a0: 7999 7f3d 75ad 5a3d ed43 dd3b 5bcc 73bc
000003b0: 3904 79bc 6749 adbc 808c 33be 031f 33be
000003c0: f43c d3bd 0744 8dbd 2359 96bd 65d1 483d
000003d0: 2381 093c f4f9 fb3c 3617 c43d 6520 8c3e
000003e0: b184 ad3e 3186 ff3d cd31 0fbd 11c2 93bd
000003f0: aa9c 58bd a021 9dbd 2c47 97bd 24d3 ddbd

input_layer.bias f4 [16]
0.0318132 0.06716075 0.011243939 0.0064986376 0.01917989 0.00745429 -0.034146246 -0.020943582
-0.013678224 -0.0055965637 0.023370255 -0.012524639 0.046871793 0.016842587 0.019009573 0.027080953
00000000: 8f4e 023d 938b 893d 8038 383c 86f2 d43b
00000010: 251f 9d3c 1e43 f43b efdc 0bbd e091 abbc
00000020: a11a 60bc 6163 b7bb fa72 bf3c 2534 4dbc
00000030: a3fc 3f3d 77f9 893c f7b9 9b3c e0d8 dd3c

hidden_layer.weight f4 [16, 16]
0.28253916 0.1912133 -0.15618876 0.004821269 -0.41840398 -0.23839542 0.036272496 -0.023037463
0.1886891 -0.45810473 -0.21946451 -0.23049013 0.46015325 -0.042662207 0.010151706 0.106827155
-0.27178773 0.17512786 -0.17590088 -0.17635766 0.064204074 0.3556511 0.14197612 0.14644092
0.12922178 -0.33301044 -0.09579704 0.22484754 -0.092013344 0.1504036 0.19685557 0.20437782
0.04003934 0.06326865 0.22082408 -0.32454652 0.16482955 0.4931 -0.2026838 0.17850193
-0.110276036 0.19201618 -0.0041035423 0.2296261 0.14695515 -0.032690197 0.1853786 -0.3103283
-0.19254117 -0.25091833 -0.0009678761 0.11313834 0.07895268 -0.22148418 -0.118557245 0.0073483884
-0.08482405 0.34103653 0.185912 -0.2178146 0.15047763 -0.029510856 -0.1415008 0.5324567
0.108760945 -0.18893486 0.20734616 0.24507043 0.29254782 0.20803045 -0.075835586 -0.07217297
0.099346004 0.17702092 -0.12974696 0.016783506 -0.10352175 -0.18425824 0.1496636 0.14995916
-0.016741015 0.21998341 -0.18626623 -0.33274552 0.23727871 -0.46271554 -0.18641835 -0.123319864
0.13244629 0.22950652 -0.22880135 -0.13810721 0.27181107 -0.2018339 -0.058459405 0.17676404
-0.13632281 0.36685678 -0.066221625 0.11598759 0.026118824 -0.1932684 -0.18322608 0.20548463
0.19288743 -0.24375102 -0.13914442 -0.17960304 -0.34054837 -0.1718528 0.09369093 0.21619754
-0.35329428 -0.1472418 0.057835598 0.2631707 0.4851823 0.02028491 -0.10183868 -0.15757582
0.0016470928 -0.34920454 0.15704182 0.18018262 0.16439082 0.044103332 0.029559685 0.25215685
-0.13057227 0.32488754 0.22617301 -0.21660988 -0.14464334 0.003049102 0.1342974 -0.113584906
-0.053033203 0.4331425 -0.12183696 0.18675661 0.092223264 -0.12959331 -0.07117018 -0.20680113
0.07786459 0.121137895 -0.22223353 -0.13546877 -0.22520663 0.17835732 0.24348575 0.026662767
0.010338065 0.17638665 -0.067282386 0.20037472 0.1450464 0.16844265 -0.20682484 0.09944468
-0.097210295 0.1620661 0.1048632 -0.1640943 -0.64305615 0.37791607 -0.10743767 0.15321884
0.059292853 -0.28475717 -0.06261644 0.13872561 0.27123302 -0.0038789809 -0.087445915 -0.12178808
0.09634581 -0.39361307 0.24082592 0.17870192 0.0512192 0.21635422 -0.16908085 0.111956626
-0.16384022 0.36199054 0.18043956 -0.018310573 0.024951689 0.1811244 0.0018250633 -0.06824235
0.29803312 0.20587584 0.006992519 0.29085347 -0.23815079 0.049725834 -0.23634785 -0.092623234
0.15564764 0.053999487 0.16714478 -0.12429482 -0.33851558 0.05572179 -0.032932907 0.025638627
0.5718552 0.05000919 -0.09026879 -0.31225604 0.14002424 0.2024082 -0.1077669 0.14548022
-0.008208244 0.11920978 -0.22013457 -0.19896169 0.20441191 -0.11398415 -0.17869936 -0.07724828
-0.3869366 -0.03785858 -0.03225833 0.20177309 0.012592441 -0.10537848 0.050840408 -0.15168759
0.23431626 0.13913701 -0.089718096 -0.14138217 0.23657468 0.2245523 0.032731175 -0.20680901
-0.10860482 -0.2030793 0.07299469 0.37956673 -0.4739263 0.26799187 -0.14567989 -0.19072428
-0.021637995 -0.06786965 -0.0025340247 0.1767347 0.35306042 -0.09304184 -0.09927803 0.044727143
00000000: f9a8 903e 6bcd 433e f2ef 1fbe bcfb 9d3b
00000010: 0c39 d6be ee1d 74be 7892 143d 10b9 bcbc
00000020: b737 413e b48c eabe 4ebb 60be 9b05 6cbe
00000030: 3599 eb3e 91be 2ebd 5753 263c 32c8 da3d
00000040: c327 8bbe b854 333e 5c1f 34be 1a97 34be
00000050: 6d7d 833d e717 b63e 3062 113e 9cf4 153e
00000060: b752 043e 5880 aabe 3d31 c4bd 6f3e 663e
00000070: 7e71 bcbd 6703 1a3e 8294 493e 6b48 513e
00000080: 4a00 243d fe92 813d b51f 623e f62a a6be
00000090: 14c9 283e 9a77 fc3e 588c 4fbe 36c9 363e
000000a0: 67d8 e1bd e49f 443e 0277 86bb 1b23 6b3e
000000b0: 697b 163e 28e6 05bd e3d3 3d3e 5ae3 9ebe
000000c0: 8329 45be 5e78 80be 11b9 7dba 13b5 e73d
000000d0: f1b1 a13d c0cc 62be 24ce f2bd c0ca f03b
000000e0: 3bb8 adbd 579c ae3e b75f 3e3e ca0a 5fbe
000000f0: cf16 1a3e c0c0 f1bc 96e5 10be 154f 083f
00000100: 0fbe de3d 2478 41be 8d52 543e bef3 7a3e
00000110: d4c8 953e ef05 553e b04f 9bbd 6ccf 93bd
00000120: eb75 cb3d f944 353e 63dc 04be 907d 893c
00000130: 3603 d4bd 31ae 3cbe 6a41 193e e58e 193e
00000140: 7424 89bc 5543 613e 93bc 3ebe 9f5d aabe
00000150: 31f9 723e 0de9 ecbe 74e4 3ebe 208f fcbd
00000160: 00a0 073e c203 6b3e e74a 6abe fa6b 0dbe
00000170: d22a 8b3e 8cad 4ebe 2173 6fbd a201 353e
00000180: 3598 0bbe a7d4 bb3e 349f 87bd e78a ed3d
00000190: 25f7 d53c 27e8 45be 9e9f 3bbe 906a 523e
000001a0: 4884 453e de99 79be e07b 0ebe dce9 37be
000001b0: 5b5c aebe 2efa 2fbe 08e1 bf3d e362 5d3e
000001c0: fde2 b4be 8ec6 16be 05e5 6c3d 4fbe 863e
000001d0: d069 f83e 8a2c a63c cc90 d0bd 8e5b 21be
000001e0: 43e3 d73a f0ca b2be 92cf 203e cb81 383e
000001f0: 1156 283e b2a5 343d 2727 f23c b41a 813e
00000200: bdb4 05be a957 a63e e699 673e fbce 5dbe
00000210: 621d 14be 71d3 473b 4285 093e 349f e8bd
00000220: 5839 59bd dbc4 dd3e a885 f9bd 203d 3f3e
00000230: 8ddf bc3d 1cb4 04be acc1 91bd adc3 53be
00000240: 7877 9f3d 2517 f83d 3091 63be 53b8 0abe
00000250: 919c 66be 4da3 363e 5454 793e e06b da3c
00000260: fd60 293c b49e 343e 59cb 89bd 082f 4d3e
00000270: 0b87 143e 3b7c 2c3e e4c9 53be a7a9 cb3d
00000280: 3116 c7bd a8f4 253e 84c2 d63d 5608 28be
00000290: 549f 24bf 377e c13e 4808 dcbd 66e5 1c3e
000002a0: 10dd 723d b1cb 91be 0c3d 80bd 160e 0e3e
000002b0: 0edf 8a3e 8036 7ebb d816 b3bd 076c f9bd
000002c0: f450 c53d a787 c9be 129b 763e a3fd 363e
000002d0: 39cb 513d f68b 5d3e 8823 2dbe 8449 e53d
000002e0: bbc5 27be d356 b93e 26c5 383e 0e00 96bc
000002f0: 7c67 cc3c ad78 393e f636 ef3a a5c2 8bbd
00000300: cc97 983e 1ed1 523e 8021 e53b bfea 943e
00000310: cddd 73be 51ad 4b3d 2c05 72be 40b1 bdbd
00000320: 1862 1f3e 912e 5d3d 0028 2b3e 488e febd
00000330: ea51 adbe 883c 643d a8e4 06bd 1908 d23c
00000340: 1a65 123f 70d6 4c3d d8de b8bd 06e0 9fbe
00000350: 8462 0f3e 1844 4f3e e4b4 dcbd c4f8 143e
00000360: df7b 06bc 4224 f43d f56a 61be 9dbc 4bbe
00000370: 5b51 513e 8670 e9bd f7fc 36be 5934 9ebd
00000380: 8e1c c6be 9911 1bbd 5021 04bd 9b9d 4e3e
00000390: 8750 4e3c acd0 d7bd 083e 503d fe53 1bbe
000003a0: 9af0 6f3e ef79 0e3e 1fbe b7bd 7dc6 10be
000003b0: a240 723e 0af1 653e 2011 063d bec5 53be
000003c0: 346c debd 05f4 4fbe 3d7e 953d 9256 c23e
000003d0: 78a6 f2be 3b36 893e 1c2d 15be 3a4d 43be
000003e0: 2a42 b1bc 3eff 8abd e111 26bb f1f9 343e
000003f0: 56c4 b43e b88c bebd 4852 cbbd cf33 373d

hidden_layer.bias f4 [16]
0.09155373 0.12824796 -0.0044596125 -0.121859856 0.1567296 0.09043774 -0.08558084 -0.077069096
-0.07739647 0.2443444 0.1269262 -0.14258496 -0.12221713 -0.1879039 0.27042508 -0.1422353
00000000: 8680 bb3d 6f53 033e f121 92bb a991 f9bd
00000010: b97d 203e 6c37 b93d 0245 afbd 67d6 9dbd
00000020: 0a82 9ebd 6b35 7a3e f1f8 013e cb01 12be
00000030: fa4c fabd e169 40be 2875 8a3e 21a6 11be

output_layer.weight f4 [10, 16]
-0.05363705 0.13012552 0.35023838 0.13741386 -0.30724052 -0.34795874 -0.2699093 -0.44179896
0.22115171 -0.038371023 0.17847405 -0.6056727 0.056460213 0.04664483 0.00774507 0.08834359
-0.3762419 -0.114334665 0.08163071 0.25616348 0.011160891 0.26628172 -0.54860854 0.073920846
-0.75937873 -0.19517596 0.20341697 0.3201143 0.0061507532 0.123882815 -0.41592228 -0.48588198
-0.34513035 -0.19434994 0.087723546 -0.038601276 -0.20627585 0.27381182 0.39616045 -0.17944492
0.57570255 -0.0202062 -0.12735297 0.3243284 0.21534888 -0.061765384 -0.19196367 -0.028409356
0.07879672 0.05815352 0.09806826 0.11557842 -0.12301427 0.3709808 -0.15621132 -0.122053504
-0.0006896737 0.12830667 -0.64506745 -0.14324735 -0.5497826 0.14462015 0.1301115 -0.12185776
-0.052151747 0.34878036 -0.45842427 0.28601238 -0.11929039 -0.19900295 0.25884107 0.09317519
0.18001099 0.0898042 0.16409004 0.040055778 -0.004451484 -0.28217095 -0.5749718 0.048884824
0.277372 -0.24871798 0.09387271 -0.544045 0.0138185695 -0.25062293 0.053051837 -0.059309933
-0.34689245 -0.0052717263 -0.44749224 -0.12815057 -0.23153177 0.32320827 -0.031952213 0.072464295
-0.3977996 0.08366275 0.0065717422 -0.31706756 0.24400169 -0.36965135 0.46714106 -0.32070893
-0.2808043 0.12363489 0.28377676 -0.496366 0.36635527 0.060539447 -0.20295782 -0.6596482
-0.6269694 0.29560062 -0.04586399 0.3861079 0.18487313 -0.2732334 -0.52418435 0.07739209
0.2927907 0.06789502 0.43989286 0.088522 -0.606141 -0.30286005 0.22670512 0.22886857
0.15766934 -0.31199247 -0.36419675 0.106607504 -0.0415309 0.10784664 -0.16749072 -0.51860106
-0.2936162 0.11431507 -0.3430855 0.1743358 0.048771065 0.094275326 -0.33537456 0.20412157
0.16216844 -0.43843386 -0.25969622 0.19125356 0.0013912618 -0.016497158 -0.32443848 0.15792716
-0.15329663 -0.0997874 -0.0228356 -0.2707329 -0.113324896 -0.33584613 0.33736056 0.11089506
00000000: 86b2 5bbd a03f 053e 7252 b33e 38b6 0c3e
00000010: a14e 9dbe a627 b2be 8d31 8abe 7933 e2be
00000020: 9875 623e ef2a 1dbd e7c1 363e 5e0d 1bbf
00000030: d342 673d a60e 3f3d 5bca fd3b 7ced b43d
00000040: c7a2 c0be 4b28 eabd 002e a73d dc27 833e
00000050: 2bdc 363c 1456 883e 9c71 0cbf d063 973d
00000060: a566 42bf 35dc 47be 8a4c 503e 06e6 a33e
00000070: 428c c93b 46b6 fd3d c4f3 d4be 86c5 f8be
00000080: edb4 b0be ac03 47be 67a8 b33d 5f1c 1ebd
00000090: fa39 53be 1031 8c3e 8bd5 ca3e 69c0 37be
000000a0: 3e61 133f 7987 a5bc d168 02be 5f0e a63e
000000b0: 6b84 5c3e b3fd 7cbd 2092 44be bdba e8bc
000000c0: 2d60 a13d 6332 6e3d 03d8 c83d 61b4 ec3d
000000d0: e8ee fbbd 32f1 bd3e dcf5 1fbe 30f7 f9bd
000000e0: 38cb 34ba d362 033e 2423 25bf 6faf 12be
000000f0: 8dbe 0cbf 4e17 143e f33b 053e 9090 f9bd
00000100: 129d 55bd 5793 b23e 96b6 eabe 3770 923e
00000110: 854e f4bd 6ec7 4bbe d186 843e a2d2 be3d
00000120: cd54 383e 44eb b73d 3807 283e 8711 243d
00000130: c1dd 91bb b678 90be 5a31 13bf 743b 483d
00000140: b403 8e3e edaf 7ebe 5640 c03d 8846 0bbf
00000150: 4867 623c a651 80be e24c 593d f9ee 72bd
00000160: e39b b1be 72be acbb b41d e5be e739 03be
00000170: aa16 6dbe 8e7b a53e 53e0 02bd 2968 943d
00000180: 64ac cbbe 6057 ab3d c557 d73b ae56 a2be
00000190: 94db 793e f142 bdbe 1d2d ef3e f633 a4be
000001a0: 95c5 8fbe 4a34 fd3d 304b 913e af23 febe
000001b0: eb92 bb3e 36f8 773d 2dd4 4fbe b4de 28bf
000001c0: 1181 20bf f758 973e e1db 3bbd efaf c53e
000001d0: 624f 3d3e 40e5 8bbe f230 06bf be7f 9e3d
000001e0: aae8 953e 8b0c 8b3d a339 e13e 064b b53d
000001f0: 0e2c 1bbf 7910 9bbe 6325 683e 865c 6a3e
00000200: 1274 213e 7abd 9fbe ff77 babe 0955 da3d
00000210: 4e1c 2abd b3de dc3d b082 2bbe 0ac3 04bf
00000220: dd54 96be 051e ea3d e7a8 afbe 1585 323e
00000230: 2bc4 473d 6c13 c13d 37b6 abbe 3f05 513e
00000240: 7c0f 263e 677a e0be e7f6 84be f9d7 433e
00000250: 005b b63a 0c25 87bc cd1c a6be a8b7 213e
00000260: cbf9 1cbe 565d ccbd b911 bbbc 819d 8abe
00000270: e216 e8bd 06f4 abbe 86ba ac3e f31c e33d

output_layer.bias f4 [10]
0.012447969 -0.16440229 0.042892374 0.09345483 -0.004037651 -0.16746858 0.04989372 0.13133796
0.034223523 0.34470657
00000000: 91f2 4b3c 1359 28be eaaf 2f3d 3f65 bf3d
00000010: 454e 84bb e27c 2bbe 5b5d 4c3d 757d 063e
00000020: f72d 0c3d 617d b03e
